result/autoencoder/autoencoder.pth (torch_old, 882001 bytes, 16 tensors)

encoder.0.weight f4 [128, 784]
-0.0075359694 -0.010410233 -0.0042887814 -0.010164156 -0.004599853 0.003921198 -0.011078201 0.0013973666
0.0013315027 -0.0059462846 -0.010662289 0.0016397614 0.0012045664 -0.0075224866 -0.00048441504 -0.009674829
0.0007291286 -0.008779511 -0.010694317 -0.011362969 -0.009579069 -0.009343587 -0.013121853 0.0040131877
0.0003545357 -0.008812226 -4.6117137e-05 -0.013113305 -0.0015993476 -0.0034791902 -0.006637921 -0.00820289
-0.0058055953 -0.0025848637 0.003073413 0.0041222726 -0.0054036197 -0.0009859134 -0.009996232 -0.0007329297
-0.0019513555 -0.0069582607 -0.013594083 -0.012780017 -0.00064053293 -0.01181366 0.0019703638 -0.013679735
0.002024749 -0.0010579762 -0.0030553776 -0.009306422 -0.012900493 -0.0028866695 0.0019812882 -0.0031914918
-0.011691389 -0.0005008 -0.006477085 -0.009848106 -0.009902035 0.00050792645 0.00059070345 -0.0015628175
-0.004953731 0.003195021 -0.0011772519 -0.012762398 -0.022135988 -0.022646746 -0.014194286 -0.010460654
-0.00068649236 -0.015503314 -0.027183197 -0.031086603 -0.019522753 -0.012456426 -0.0033581576 -0.0027175217
-0.006950016 -0.0043048877 -0.0010879724 -0.007365663 -0.007653881 -0.0072993618 -0.01123909 -0.0040078894
-0.0036762892 -0.013512851 -0.00850446 -0.007435912 0.0014469238 -0.019701878 -0.03668073 -0.047428105
-0.067418 -0.066675365 -0.05709822 -0.020705882 0.022466721 0.012614746 0.009808658 -0.019716544
-0.023369754 -0.024684332 -0.014162067 -0.004706059 0.00022463205 -0.00026246283 0.004064646 -0.0034448318
-0.00088629575 -0.012993109 -0.011000787 -0.007234466 0.0029304593 0.005477262 0.015877474 0.013117788
-0.006253642 -0.013977234 0.010757846 0.035083104 0.09540683 0.08868215 0.09730313 0.10144454
0.04260168 0.06423417 0.07910815 0.041763768 0.03165409 -0.019549485 -0.037375957 -0.03349036
-0.0014803696 0.001615406 -0.008968716 -0.009508001 -0.0059487266 -0.013411044 -0.012987255 -0.011125784
0.010962119 0.023405172 0.03841113 0.012760142 -0.020783935 0.010258618 0.040797673 0.07315261
0.12946312 0.15467195 0.18611938 0.17185211 0.11519527 0.14335701 0.08368454 0.036125902
0.018056512 -0.004134962 -0.04375005 -0.051305823 -0.025368094 -0.00812603 -0.0011118564 -0.0069461376
0.002875345 -0.011452149 -0.008972176 -0.005165041 0.026487025 0.033203404 0.0076152137 -0.05514998
-0.04179951 0.0072257873 0.065098815 0.06748697 0.090203665 0.16898726 0.20077224 0.112499535
0.057030946 0.008317688 0.016349675 -0.024463417 -0.044012044 -0.03880947 -0.05392453 -0.059037082
-0.026846658 -0.018291345 -0.0125104 -0.0011588961 -0.008223098 -0.0050954134 -0.0006696313 0.018668434
0.05449737 0.04629852 0.002438455 -0.043397807 -0.043399207 0.028283168 0.009551902 -0.004763872
0.008094472 0.12503605 0.08621074 0.027312534 -0.08056143 -0.10682071 -0.09745555 -0.103933945
-0.024102407 -0.015673392 -0.048899658 -0.04500585 -0.027225781 -0.021376664 0.0047881966 -0.0013346759
-0.009020789 -0.0066624237 0.0018550679 0.035018075 0.06454148 0.07453319 -0.0061499686 -0.042354807
0.016996607 0.053822413 -0.0003948569 -0.030257404 0.06475677 0.117095634 0.101500876 0.00813498
-0.06582213 -0.09981619 -0.047001176 -0.09297104 -0.009828575 -0.01576084 -0.04980215 -0.026136488
-0.0136580635 -0.032541543 -0.013055853 0.0020593647 0.00011538256 -0.0007432494 0.009201024 0.024553131
00000000: 4bf0 f6bb af8f 2abc e888 8cbb 8f87 26bc
00000010: 5dba 96bb 657d 803b 5881 35bc d827 b73a
00000020: d185 ae3a 0dd9 c2bb e2b0 2ebc 43ed d63a
00000030: 8be2 9d3a 317f f6bb 16f9 fdb9 2d83 1ebc
00000040: fe22 3f3a f0d7 0fbc 3737 2fbc bf2b 3abc
00000050: 87f1 1cbc d815 19bc 0afd 56bc 0f81 833b
00000060: fae0 b939 2861 10bc e66d 41b8 30d9 56bc
00000070: 33a1 d1ba 2003 64bb eb82 d9bb 6a65 06bc
00000080: dd3c bebb d166 29bb 506b 493b 2114 873b
00000090: d910 b1bb c439 81ba 3cc7 23bc 1422 40ba
000000a0: a0c4 ffba 1f02 e4bb b7b9 5ebc 4763 51bc
000000b0: 70e9 27ba 158e 41bc 3821 013b f820 60bc
000000c0: a7b1 043b caab 8aba bb3c 48bb f779 18bc
000000d0: 975c 53bc 472e 3dbb 80d8 013b 5928 51bb
000000e0: 3d8d 3fbc 1e48 03ba ba3d d4bb f359 21bc
000000f0: 253c 22bc 5e26 053a 70d9 1a3a 74d7 ccba
00000100: e852 a2bb 8f63 513b 054e 9aba 6119 51bc
00000110: 8856 b5bc ab85 b9bc 278f 68bc 2a63 2bbc
00000120: b9f5 33ba 9d01 7ebc 4caf debc 55a9 febc
00000130: 2eee 9fbc 0a16 4cbc 8914 5cbb 7318 32bb
00000140: f6bc e3bb 0410 8dbb 4c9a 8eba a95b f1bb
00000150: 68cd fabb 7c2f efbb 2924 38bc 9d54 83bb
00000160: e6ed 70bb 0165 5dbc 4a56 0bbc f3a8 f3bb
00000170: b5a6 bd3a d565 a1bc 883e 16bd f943 42bd
00000180: 7312 8abd 188d 88bd d3df 69bd 629f a9bc
00000190: 210c b83c 14ae 4e3c 7eb4 203c 9784 a1bc
000001a0: ed71 bfbc cc36 cabc 0408 68bc 4935 9abb
000001b0: 358b 6b39 2a9b 89b9 b930 853b b0c2 61bb
000001c0: 4d56 68ba 0de1 54bc a53c 34bc 190f edbb
000001d0: f30c 403b 9b7a b33b 7a11 823c feeb 563c
000001e0: 5aeb ccbb c500 65bc ad41 303c 4db3 0f3d
000001f0: a864 c33d fd9e b53d dd46 c73d 28c2 cf3d
00000200: 197f 2e3d 348d 833d 7403 a23d 7c10 2b3d
00000210: b8a7 013d 3e26 a0bc 8817 19bd 302d 09bd
00000220: f608 c2ba 08bc d33a 85f1 12bc 72c7 1bbc
00000230: 89ed c2bb ffb9 5bbc 7fc8 54bc ec48 36bc
00000240: 769a 333c 34bc bf3c fd54 1d3d ea0f 513c
00000250: 1243 aabc c313 283c 761b 273d 09d1 953d
00000260: fb91 043e 5362 1e3e 1496 3e3e 00fa 2f3e
00000270: 7feb eb3d 2ecc 123e cd62 ab3d c1f8 133d
00000280: 40eb 933c 937e 87bb 4133 33bd 0e26 52bd
00000290: c0d0 cfbc 0a23 05bc b6bb 91ba 6d9c e3bb
000002a0: 4970 3c3b cba1 3bbc 0900 13bc 813f a9bb
000002b0: 51fb d83c 4b00 083d 0b89 f93b f2e4 61bd
000002c0: f735 2bbd 4cc6 ec3b 8752 853d 9c36 8a3d
000002d0: b3bc b83d ff0a 2d3e 3d97 4d3e 2866 e63d
000002e0: 4899 693d e946 083c c1ef 853c 8167 c8bc
000002f0: f945 34bd aef6 1ebd f8df 5cbd ded0 71bd
00000300: 86ed dbbc bbd7 95bc 6cf8 4cbc 1ae6 97ba
00000310: 2cba 06bc 6df7 a6bb 328a 2fba 8bee 983c
00000320: a238 5f3d 84a3 3d3d 7cce 1f3b e6c1 31bd
00000330: 5ec3 31bd 1ab2 e73c 957f 1c3c 411a 9cbb
00000340: ad9e 043c 7309 003e 428f b03d 89be df3c
00000350: 64fd a4bd d1c4 dabd c796 c7bd 52db d4bd
00000360: 6972 c5bc 7c65 80bc 024b 48bd 0e58 38bd
00000370: 9a08 dfbc 1d1e afbc 4ee6 9c3b 4bf0 aeba
00000380: eecb 13bc 7650 dabb c025 f33a 1d6f 0f3d
00000390: 532e 843d dba4 983d ad85 c9bb 3c7c 2dbd
000003a0: 783c 8b3c e474 5c3d cc04 cfb9 60de f7bc
000003b0: 339f 843d d6cf ef3d b1df cf3d 9448 053c
000003c0: c1cd 86bd 6e6c ccbd 4e84 40bd 9a67 bebd
000003d0: 0808 21bc e11c 81bc 57fd 4bbd 301c d6bc
000003e0: 12c6 5fbc 484a 05bd 37e8 55bc 68f6 063b
000003f0: 8af9 f138 9fd6 42ba e4bf 163c a623 c93c

encoder.0.bias f4 [128]
-0.0021153435 0.0053362977 -6.168393e-05 -0.002208331 -0.025045903 0.005176288 -0.038630478 -1.5919442e-06
-0.00012276907 -0.0023727168 -1.9408176e-11 -0.0037926487 -0.017873298 -1.4238822e-06 -0.03071569 -0.0012588474
-1.449618e-25 0.03448344 -5.035991e-05 0.009741073 -0.00027426702 -0.01805835 0.005264821 0.0049857013
-5.891636e-13 0.004005655 -0.0006730234 -0.0010775786 -1.708401e-09 -3.9308172e-05 0.0693935 -9.554165e-10
-0.009957799 -0.013464377 -3.660541e-05 0.004588738 -0.017224116 -4.885972e-15 0.0526413 -0.02478784
-0.011489981 -0.025578266 0.026605614 -5.7106063e-11 -0.021731121 -3.6950823e-10 -0.01712704 -2.7647948e-06
-8.1730233e-13 -0.0062091704 -4.6004697e-12 -1.5960852e-16 0.013775677 -0.01818455 -8.0326185e-20 -0.00031597895
-7.7700774e-13 -2.4655677e-09 -0.002098969 -0.012744716 0.0013430433 -0.00026597353 0.0091462545 -0.005346818
-8.425663e-08 -0.021221584 0.0057729245 -0.011257581 -3.550059e-08 -0.0010122699 0.030288152 -0.016877824
-0.0009443994 -0.0029326405 -0.006528729 0.02301445 0.0044518607 -0.034431197 -0.028175443 -2.8001257e-09
0.005936446 0.0038064031 -0.03349113 0.0075761336 -0.01602045 -3.5240137e-07 -0.0003665347 -0.01587247
-2.369195e-10 -0.0055314945 -1.0676289e-05 -0.014770416 -0.011669627 0.00037603878 -0.029295573 -0.017009916
-7.71937e-05 0.040374402 -0.00017343387 -8.50684e-11 -0.0035657482 -1.6967433e-11 -0.0053226217 -0.0011044693
-0.000784035 -0.000723172 0.052498147 -2.3942721e-09 -0.046395693 -0.023399401 0.004219036 -4.779703e-13
-0.011000487 -0.0018712741 -5.094704e-05 0.014741714 -1.1251738e-12 0.010029217 0.0097123915 -0.017085522
-1.7951608e-05 -3.446299e-13 -5.2642466e-08 -5.4088668e-11 -0.007700073 -0.016580414 -6.3518246e-07 -7.003943e-10
00000000: 93a1 0abb 1cdc ae3b 4f5c 81b8 a5b9 10bb
00000010: 112d cdbc da9d a93b fe3a 1ebd c9aa d5b5
00000020: 92bb 00b9 957f 1bbb 54b7 aaad 168e 78bb
00000030: 066b 92bc 381c bfb5 799f fbbc e9ff a4ba
00000040: 3a74 3396 823e 0d3d 8b39 53b8 0599 1f3c
00000050: 7fcb 8fb9 1bef 93bc 8584 ac3b 185f a33b
00000060: b6d5 25ab df41 833b d66d 30ba 8a3d 8dba
00000070: 04cd eab0 d4de 24b8 2e1e 8e3d bb4f 83b0
00000080: 0926 23bc b199 5cbc c288 19b8 205d 963b
00000090: 9719 8dbc 2309 b0a7 679e 573d de0f cbbc
000000a0: 7940 3cbc 8389 d1bc 04f4 d93c b627 7bae
000000b0: 7705 b2bc a923 cbaf 024e 8cbc d08a 39b6
000000c0: d70c 66ab 4c76 cbbb 59dd a1ac 1f04 38a5
000000d0: 61b3 613c c4f7 94bc 33aa bd9f faa9 a5b9
000000e0: 4fb5 5aab ba6e 29b1 db8e 09bb 37cf 50bc
000000f0: 0e09 b03a 5d72 8bb9 2cda 153c 5c34 afbb
00000100: 92f0 b4b3 e3d8 adbc cd2a bd3b b871 38bc
00000110: 5079 18b3 24ae 84ba dc1e f83c 5d43 8abc
00000120: 9291 77ba 8b31 40bb f3ee d5bb cd88 bc3c
00000130: eae0 913b ba07 0dbd 30d0 e6bc 556c 40b1
00000140: 8586 c23b d974 793b ff2d 09bd 3741 f83b
00000150: 523d 83bc ad31 bdb4 742b c0b9 fb06 82bc
00000160: 753f 82af 8a41 b5bb 501e 33b7 9dff 71bc
00000170: f731 3fbc 1227 c539 45fd efbc 6158 8bbc
00000180: 0de3 a1b8 a15f 253d cddb 35b9 4011 bbae
00000190: 54af 69bb 433f 95ad 6369 aebb d7c3 90ba
000001a0: b387 4dba 4093 3dba 4c08 573d 7b88 24b1
000001b0: 6909 3ebd 1ab0 bfbc d73f 8a3b 6489 06ab
000001c0: 633b 34bc 8a45 f5ba f8af 55b8 3b87 713c
000001d0: a95a 9eab 9651 243c b920 1f3c f0f6 8bbc
000001e0: c996 96b7 6702 c2aa 0119 62b3 6de2 6dae
000001f0: e550 fcbb a6d3 87bc 6881 2ab5 de85 40b0

encoder.2.weight f4 [64, 128]
-0.030972596 0.07541939 -0.022824565 0.15188277 -0.047025606 0.15638764 -0.10751327 0.007340166
-0.010057784 0.021181112 -0.006095232 0.05289176 -0.29611543 0.007561501 0.008620876 -0.18874027
1.8385272e-06 0.009725173 0.00017505643 0.10788575 -0.009640156 0.026618646 -0.16317016 0.17325336
-0.005641254 -0.20552619 -0.021559546 0.021772217 0.00250498 -0.022066996 0.07998949 0.006382603
-0.102500826 -0.07973101 -0.00060098927 -0.02199852 0.007693314 0.002643752 0.062181544 -0.08533842
0.057278354 0.083817 0.016751135 -0.018838068 0.13951534 -0.019333454 -0.03430268 -0.015772643
0.0040835924 0.17809671 0.01512085 3.2801876e-05 0.16911438 -0.03817046 -0.0023909386 0.0008859996
0.005535697 -0.0017769749 -0.19363776 0.009639904 -0.2019564 -0.0586292 0.12492611 -0.029225819
-0.003842832 0.06080764 0.072583795 0.022191806 0.015899546 0.022196107 -0.046174243 0.03275246
-0.003101246 0.0106441695 -0.004888302 -0.019836864 -0.08321692 -0.032657884 0.15123385 -0.002565983
-0.05740292 -0.014449063 -0.12835845 -0.06565541 -0.03303434 2.2006024e-07 0.016781935 0.094313465
-0.024631953 -0.02420041 -0.006656043 -0.023264982 0.047627926 -0.06801956 0.12266586 -0.03153642
-0.033728875 0.00720083 0.08968318 -0.003023077 0.0885138 -0.0018441922 -0.023503289 0.026699336
0.012278496 0.027279206 0.016771147 0.0008455296 -0.1541977 -0.014503233 0.011332691 0.0027549255
0.012909182 0.043903336 0.008489176 -0.009408901 -0.007338344 -0.025537131 0.14989412 -0.09173964
0.0045615155 -0.0025513177 -0.007436846 0.00036975072 0.1257791 0.017042609 -0.0033737905 -0.012637241
0.04840101 0.08244704 -0.032933038 -0.15967438 0.10600751 -0.21198463 0.1003684 -0.026071994
0.0076263547 0.047019422 -0.029968936 -0.019254662 0.1624794 -0.026883239 0.015373691 0.116673104
4.7983705e-15 -0.25839987 0.00010439629 -0.26224923 -0.0009725427 0.056623843 -0.03547214 0.009971949
0.011635976 -9.7984805e-05 0.0023509555 0.11468384 2.8237337e-05 -0.050505474 -0.3456392 -0.05032267
-0.010096247 -0.09078622 4.3367647e-05 0.09534607 -0.028442033 -0.016836723 -0.29348576 0.015562083
-0.16078381 -0.12067916 -0.23597263 -0.017862089 0.03407447 0.0013444424 0.021943562 0.035902694
0.0030886529 -0.12485223 0.024996314 -0.0022427763 0.041088905 0.049908966 0.0035947233 0.050063994
0.0074782767 0.00026238363 0.19714996 0.059810832 0.019978235 -0.22673482 -0.06239171 -0.03280373
0.027584411 -0.28767076 0.10207544 0.027341228 0.0044438527 -0.012673603 -0.5188304 -0.037562963
-0.03723642 -0.004443374 -0.22321105 -0.33263195 -0.1266506 0.32600638 0.019181224 -0.00028069934
-0.05025604 -0.046417344 0.09268442 0.0555203 0.03468948 4.3536875e-11 -0.04568678 0.05008154
-0.037859622 0.10695015 0.0060728416 0.010520644 -0.030341942 0.020185484 -0.16017729 -0.03147252
-0.00899591 -0.28875417 0.09975727 -0.0020969282 -0.13941367 0.011670779 -0.11972805 0.032480665
-0.017078282 0.024276841 -0.3706692 0.0003547154 0.009314288 0.09413371 -0.14782347 0.0020353436
0.03227587 0.043060247 -0.011999175 -0.28901875 0.008826449 -0.22732472 0.057565942 0.02043533
0.010192774 -0.0072019496 0.0012910257 0.0002875523 -0.010981967 -0.01882538 0.007725752 0.00012081406
00000000: 3eba fdbc 7b75 9a3d 95fa babc 2887 1b3e
00000010: ec9d 40bd 1524 203e eb2f dcbd c685 f03b
00000020: 67c9 24bc 0384 ad3c 83ba c7bb 08a5 583d
00000030: 719c 97be 78c6 f73b 933e 0d3c 2145 41be
00000040: 50c3 f635 5556 1f3c 5a8f 3739 34f3 dc3d
00000050: bff1 1dbc 590f da3c 1416 27be 5469 313e
00000060: 45da b8bb 7575 52be a59d b0bc a65b b23c
00000070: 972a 243b d8c5 b4bc 88d1 a33d 2825 d13b
00000080: f4eb d1bd 034a a3bd b58b 1dba 3d36 b4bc
00000090: 3218 fc3b cc42 2d3b 13b2 7e3d e9c5 aebd
000000a0: b59c 6a3d 3fa8 ab3d ad39 893c 4b52 9abc
000000b0: 1cdd 0e3e 3161 9ebc f880 0cbd a135 81bc
000000c0: a8cf 853b fc5e 363e 71bd 773c bf94 0938
000000d0: 522c 2d3e a158 1cbd 4bb1 1cbb 6d42 683a
000000e0: cb64 b53b 62e9 e8ba fa48 46be b0f0 1d3c
000000f0: a9cd 4ebe 2c25 70bd 43d9 ff3d fc6a efbc
00000100: 06d8 7bbb 6f11 793d d0a6 943d 97cb b53c
00000110: c43f 823c 9cd4 b53c 3421 3dbd 7227 063d
00000120: 463e 4bbb e264 2e3c 0d2e a0bb eb80 a2bc
00000130: a26d aabd 46c4 05bd 0cdd 1a3e 0d2a 28bb
00000140: 531f 6bbd c3bb 6cbc 6670 03be 5876 86bd
00000150: 044f 07bd b349 6c34 457a 893c 6b27 c13d
00000160: f3c8 c9bc f03f c6bc f01a dabb 3496 bebc
00000170: 8015 433d d74d 8bbd 3d38 fb3d 552c 01bd
00000180: 4a27 0abd f1f4 eb3b d1ab b73d d11e 46bb
00000190: b946 b53d d2b8 f1ba f889 c0bc 91b8 da3c
000001a0: bf2b 493c a478 df3c a563 893c 88a6 5d3a
000001b0: 00e6 1dbe f89e 6dbc c0ac 393c fb8b 343b
000001c0: 0981 533c fcd3 333d 2f16 0b3c cb27 1abc
000001d0: 7e76 f0bb 3f33 d1bc d87d 193e fee1 bbbd
000001e0: c478 953b 0234 27bb c9b0 f3bb 1adb c139
000001f0: 3dcc 003e f19c 8b3c d01a 5dbb 6e0c 4fbc
00000200: 2340 463d fed9 a83d cbe4 06bd ae81 23be
00000210: 771a d93d 8012 59be f38d cd3d ef94 d5bc
00000220: 80e6 f93b 7097 403d 6a81 f5bc f4bb 9dbc
00000230: 0061 263e 3d3a dcbc efe1 7b3c 4ff2 ee3d
00000240: 28e1 ac27 fd4c 84be 55ef da38 8845 86be
00000250: 3cf2 7eba 67ee 673d 3c4b 11bd 6361 233c
00000260: d2a4 3e3c 317d cdb8 7d12 1a3b 5cdf ea3d
00000270: 38df ec37 d4de 4ebd 9ff7 b0be 251f 4ebd
00000280: bb6a 25bc 20ee b9bd a8e5 3538 cd44 c33d
00000290: 44ff e8bc 2bed 89bc c443 96be 1bf8 7e3c
000002a0: 83a4 24be a326 f7bd cfa2 71be 8453 92bc
000002b0: ac91 0b3d 0038 b03a fcc2 b33c b40e 133d
000002c0: ff6a 4a3b 87b2 ffbd 12c5 cc3c 8bfb 12bb
000002d0: d74c 283d 586d 4c3d 7395 6b3b e70f 4d3d
000002e0: 550c f53b 8990 8939 aee1 493e 34fc 743d
000002f0: 65a9 a33c 2c2d 68be 738e 7fbd 345d 06bd
00000300: b4f8 e13c 9549 93be ee0c d13d b6fa df3c
00000310: bd9d 913b f2a4 4fbc 12d2 04bf 9fdb 19bd
00000320: 3785 18bd b999 91bb 7091 64be bc4e aabe
00000330: b2b0 01be 4fea a63e f121 9d3c d42a 93b9
00000340: 47d9 4dbd 1d20 3ebd 54d1 bd3d 4169 633d
00000350: 8e16 0e3d 2a7a 3f2e 1022 3bbd 4d22 4d3d
00000360: b112 1bbd ae08 db3d b0fe c63b c75e 2c3c
00000370: aa8f f8bc 075c a53c 8405 24be 54e9 00bd
00000380: 9563 13bc 96d7 93be 8a4d cc3d 9e6c 09bb
00000390: 75c2 0ebe cc36 3f3c fb33 f5bd 720a 053d
000003a0: c1e7 8bbc 3ae0 c63c 5ac8 bdbe 18f9 b939
000003b0: f59a 183c 2dc9 c03d 095f 17be 6663 053b
000003c0: b433 043d f15f 303d 3098 44bc 44fa 93be
000003d0: cf9c 103c d0c7 68be 44ca 6b3d fe67 a73c
000003e0: 98ff 263c 55fe ebbb a237 a93a 9ec2 9639
000003f0: b5ed 33bc af37 9abc 4e28 fd3b 8e5d fd38

encoder.2.bias f4 [64]
0.10112275 0.0075057615 -5.515624e-16 -0.01613104 -0.0353747 -8.2266834e-26 -2.797387e-07 -0.03245819
-0.022272965 -0.07306788 0.08571654 1.0692493e-38 -1.5663977e-27 0.08960772 -0.00020769298 -0.06423131
0.027326224 -4.343777e-12 0.048538886 -9.774968e-17 -1.7642025e-11 -2.7763317e-12 -7.423531e-38 -0.0001797317
0.01970291 1.4772419e-34 -6.3590836e-05 0.036662478 0.0023912042 -0.092805244 0.085499264 0.059039906
-0.03633429 -2.5361704e-05 0.01789632 -9.736538e-16 0.0052975547 -0.017936185 -1.7693923e-10 0.006936336
0.09715487 -2.0129362e-28 -0.03720406 5.249641e-38 1.1228504e-09 -2.9724302e-05 -0.017900662 6.1308495e-38
-0.00011194215 -2.5256111e-05 -0.0100333225 -4.717704e-38 3.0815744e-38 -0.012572267 0.03365308 0.025539782
-0.05614465 -2.3921364e-38 0.0022435891 0.14388667 0.013479237 0.005332356 -0.016185543 0.0103496825
00000000: 7219 cf3d e4f2 f53b 1ffa 1ea6 3e25 84bc
00000010: 10e5 10bd cdae cb95 ff2e 96b4 e1f2 04bd
00000020: cb75 b6bc 9da4 95bd 278c af3d 526e 7400
00000030: a434 f892 4184 b73d 29c8 59b9 b48b 83bd
00000040: 3fdb df3c 44d5 98ac b6d0 463d 3a65 e1a4
00000050: 4f2e 9bad f25d 43ac 7616 ca81 5c76 3cb9
00000060: ff67 a13c f05b 4407 125c 85b8 652b 163d
00000070: c0b5 1c3b ad10 bebd 3d1a af3d d4d3 713d
00000080: 44d3 14bd d8bf d4b7 4e9b 923c 7c51 8ca6
00000090: 1c97 ad3b e8ee 92bc f78b 42af 344a e33b
000000a0: 22f9 c63d 842b 7f91 4963 18bd a9e8 8e01
000000b0: c952 9a30 7458 f9b7 69a4 92bc c9e5 a601
000000c0: 7cc2 eab8 16dd d3b7 ce62 24bc 996d 8081
000000d0: e1c6 2701 e9fb 4dbc d0d7 093d ce38 d13c
000000e0: eff7 65bd 843d 0281 2e09 133b 0757 133e
000000f0: 05d8 5c3c 0bbb ae3b 8b97 84bc b791 293c

encoder.4.weight f4 [12, 64]
0.071288034 0.5770217 0.0054109762 0.6143368 -0.20799582 0.00036472548 0.0094214305 -0.7741825
-0.20075631 0.027982835 -0.023132859 1.4273619e-38 0.00093023106 0.11556835 -0.0077217175 -0.16386184
-0.14868155 0.011950708 0.2425785 -2.678621e-06 0.0003164339 0.013030008 -0.0018231822 -0.00032619553
-0.08459923 -4.6692162e-38 0.019508393 -0.079816796 -0.012567417 -0.78803897 -0.035986915 0.1035007
-0.06989218 0.017040968 -0.38329646 -0.009853756 0.16709669 -0.6913694 -0.00019921911 0.2984907
0.06379869 -0.0007437401 0.23392735 7.529098e-13 -6.00039e-10 -0.047584545 0.016533019 1.7768709e-06
0.04155479 -0.010348241 0.10356801 -3.2689973e-10 1.5047246e-16 -0.21959837 0.014973949 0.00062132
-0.124367386 3.172475e-07 0.17612998 0.16499053 0.42043906 0.3301405 0.047567744 0.71623635
0.14164834 0.24960862 -0.004709076 0.21341681 -0.3932892 0.009730266 -0.010602383 -0.09057291
0.023542657 -0.022002656 0.043648478 9.790566e-11 0.0014656305 -0.19536081 0.017161326 0.16862488
0.3054654 -0.0027826414 0.03958894 0.00013845645 0.007077393 -0.030390816 -0.0010459189 -0.010319346
-0.10238701 1.5430729e-38 0.00625583 0.12940603 -0.12188423 0.0070954626 0.16350973 -0.21536152
0.12350334 0.026509779 0.10908834 0.0015670225 -0.03511961 0.370356 -0.0053071612 0.004960304
-0.027751189 -0.0010827648 -0.048189033 4.8633593e-38 2.476217e-08 0.0032094694 -0.02958153 0.000104402956
-0.005511389 -0.018361261 -0.045899417 1.8246942e-38 -1.6491958e-05 0.012240495 0.28917602 0.10688674
0.10419999 -0.004098333 0.50065017 -0.20227145 0.044571526 0.003027344 -0.027619693 0.18054762
0.16985494 0.41409433 0.0013852444 0.29316336 0.044372547 0.002746133 -0.0210191 0.015209704
-0.04451639 -0.3480294 -0.10655132 -1.4892797e-38 2.0241417e-07 0.114754416 0.008076391 0.15178569
0.43786573 -0.00012104702 -0.06999332 -4.5629014e-05 0.0013613558 -0.0024286583 0.0003594432 0.014792932
0.07146713 4.3116086e-34 0.011243013 0.03849492 0.099285774 0.033898454 0.30671024 -0.14066249
0.10857305 0.029023713 0.014212073 -0.0020397257 -0.00027468335 0.23674087 -0.00042569422 0.012370795
0.08761939 0.0004224128 0.04944103 1.743796e-38 -1.0157584e-09 0.0067889662 0.027341558 -1.102934e-12
-0.027966447 -0.0020058693 -0.13067403 -2.012462e-09 -1.9859892e-23 -0.03225103 0.6192966 0.032497935
0.02252115 -3.5225504e-08 0.95019704 -0.054155514 -0.07259663 0.06466237 0.008935781 -0.17853113
0.02833932 -0.560619 0.0013302945 -0.21682528 -0.05017865 -0.007625286 0.019668076 0.006132213
-0.0022265748 -0.51051915 -0.17102551 1.6936324e-11 6.9022166e-28 0.12799846 -0.030513767 0.026564429
0.15398961 -0.01973513 -0.15131931 -0.0002151243 0.0014037275 0.012401332 -0.0018096023 -0.009265936
-0.043094732 -4.1823863e-32 -0.008977329 0.046246696 0.28144053 0.005445023 0.3320415 -0.029557263
-0.5333993 0.011437097 -0.020258479 -0.001647117 0.011028077 -0.16370238 0.0018238648 0.17616397
0.03073302 0.0017754853 0.28605503 -5.885496e-39 -1.9361487e-08 -0.0151940575 -0.0012534867 -0.00060885306
0.024562662 -0.0006949088 -0.39319488 6.7900716e-14 -1.4390836e-12 -0.9835995 -0.08525502 -1.1752756
0.05307884 -0.00012926763 -0.24410473 0.030293424 0.272124 -0.45702356 -0.024520878 0.03242376
00000000: 76ff 913d b2b7 133f 8f4e b13b 2d45 1d3f
00000010: dbfc 54be a038 bf39 585c 1a3c d330 46bf
00000020: 1093 4dbe 423c e53c 1f81 bdbc 0b6d 9b00
00000030: c0da 733a 19af ec3d 7606 fdbb 66cb 27be
00000040: fa3f 18be e7cc 433c 8066 783e 5cc2 33b6
00000050: 0ae7 a539 d17b 553c d8f7 eeba 3905 abb9
00000060: 5c42 adbd 6037 7e81 11d0 9f3c fd76 a3bd
00000070: 91e7 4dbc ecbc 49bf 0467 13bd 2df8 d33d
00000080: a223 8fbd 8099 8b3c 6f3f c4be a671 21bc
00000090: 651b 2b3e 96fd 30bf 79e5 50b9 c6d3 983e
000000a0: e3a8 823d 8ef7 42ba a78a 6f3e deec 532b
000000b0: feef 24b0 03e8 42bd 4170 873c d27c ee35
000000c0: 5b35 2a3d ab8b 29bc 771b d43d 0cb7 b3af
000000d0: a27b 2d25 65de 60be 4b55 753c 14e0 223a
000000e0: 54b4 febd 2a52 aa34 6b5b 343e 47f3 283e
000000f0: ca43 d73e 2d08 a93e 65d6 423d 445b 373f
00000100: 430c 113e 6799 7f3e 984e 9abb f089 5a3e
00000110: 345d c9be b26b 1f3c 9eb5 2dbc 4a7e b9bd
00000120: 88dc c03c ea3e b4bc bfc8 323d fd4b d72e
00000130: 661a c03a aa0c 48be e995 8c3c 00ac 2c3e
00000140: f665 9c3e fa5c 36bb 0328 223d 9f2e 1139
00000150: 7ae9 e73b 29f6 f8bc 3717 89ba 7912 29bc
00000160: 48b0 d1bd 9806 a800 b5fd cc3b 0483 043e
00000170: 709e f9bd 0e81 e83b 186f 273e bb87 5cbe
00000180: 52ef fc3d 092b d93c b569 df3d 8d64 cd3a
00000190: 95d9 0fbd 4d9f bd3e b2e7 adbb 0c8a a23b
000001a0: 7656 e3bc 8feb 8dba dd61 45bd ab64 8401
000001b0: 96b4 d432 f655 523b f754 f2bc e9f2 da38
000001c0: e298 b4bb 5b6a 96bc 0701 3cbd 0db1 c600
000001d0: 3658 8ab7 5b8c 483c e10e 943e 6fe7 da3d
000001e0: ce66 d53d 4f4b 86bb 9c2a 003f 3f20 4fbe
000001f0: a290 363d 6766 463b b242 e2bc 7ae1 383e
00000200: 74ee 2d3e 2c04 d43e 1791 b53a 8219 963e
00000210: fdbf 353d 77f8 333b 3f30 acbc 1f32 793c
00000220: d156 36bd e930 b2be 9437 dabd 0f2b a280
00000230: 2f57 5934 5d04 eb3d d752 043c b56d 1b3e
00000240: f02f e03e a0da fdb8 a858 8fbd c861 3fb8
00000250: 856f b23a 202a 1fbb a673 bc39 0e5e 723c
00000260: 5c5d 923d 1c47 0f08 9d34 383c d9ac 1d3d
00000270: 5756 cb3d 1bd9 0a3d 2009 9d3e d409 10be
00000280: 8c5b de3d 23c3 ed3c c1d9 683c ebac 05bb
00000290: 6003 90b9 336c 723e b62f dfb9 e0ae 4a3c
000002a0: cb71 b33d 4977 dd39 ad82 4a3d f0e1 bd00
000002b0: d29a 8bb0 fa75 de3b 67fb df3c 6339 9bab
000002c0: e419 e5bc e774 03bb 6acf 05be 9b4b 0ab1
000002d0: b612 c099 a819 04bd 398a 1e3f 8e1c 053d
000002e0: 467e b83c da4a 17b3 1d40 733f 2cd2 5dbd
000002f0: 8bad 94bd b46d 843d 6267 123c ddd0 36be
00000300: dd27 e83c ba84 0fbf 475d ae3a 7207 5ebe
00000310: 2188 4dbd 89dd f9bb f21e a13c bbf0 c83b
00000320: baeb 11bb 62b1 02bf 5021 2fbe 36f9 942d
00000330: 6fbd 5a12 0712 033e 02f8 f9bc a59d d93c
00000340: 74af 1d3e 91ab a1bc 73f3 1abe fd92 61b9
00000350: 47fd b73a f52e 4b3c 2d30 edba 27d0 17bc
00000360: 1a84 30bd 7329 598b a615 13bc 2d6d 3d3d
00000370: f918 903e 2a6c b23b 5801 aa3e 1322 f2bc
00000380: db8c 08bf a962 3b3c 1cf5 a5bc 13e4 d7ba
00000390: 1caf 343c 99a1 27be bf0e ef3a 5464 343e
000003a0: d0c3 fb3c 67b7 e83a ce75 923e 5e16 4080
000003b0: 5c50 a6b2 7ff0 78bc 094c a4ba 709b 1fba
000003c0: a337 c93c 8a2a 36ba d750 c9be 19e6 9829
000003d0: 7388 caab 2dcd 7bbf 2f9a aebd 6e6f 96bf
000003e0: 3369 593d 048c 07b9 97f6 79be ea29 f83c
000003f0: d653 8b3e fefe e9be 02e0 c8bc c7ce 043d

encoder.4.bias f4 [12]
-0.17907739 0.025934748 0.16606972 0.2389905 0.11578379 0.05424491 -0.010207374 0.09084615
0.024598598 0.17865565 0.05837469 -2.8246479e-12
00000000: 1060 37be 1c75 d43c 2e0e 2a3e edb9 743e
00000010: 0d20 ed3d e92f 5e3d d43c 27bc 8c0d ba3d
00000020: 0083 c93c 82f1 363e 4d1a 6f3d 55c4 46ac

encoder.6.weight f4 [2, 12]
-0.96889156 -0.22987251 -0.13657027 0.38242713 -0.62144005 0.2013402 -0.0057096425 0.43738353
0.375819 0.11399673 -0.46650952 -5.3160832e-08 -0.25341973 0.092077404 0.24724069 -0.8103751
-0.2384567 0.17278525 -0.0050920546 0.046883624 -0.16880575 0.29088265 -0.6098422 1.5452435e-06
00000000: 4709 78bf b363 6bbe 14d9 0bbe 7dcd c33e
00000010: b216 1fbf 202c 4e3e f417 bbbb bcf0 df3e
00000020: 596b c03e 1e77 e93d 56da eebe f452 64b3
00000030: 3bc0 81be 1493 bc3d aa2c 7d3e be74 4fbf
00000040: fe2d 74be 9eee 303e 40db a6bb 0b09 403d
00000050: 6adb 2cbe 92ee 943e 9e1e 1cbf 2a66 cf35

encoder.6.bias f4 [2]
-0.11475066 0.32929087
00000000: 6502 ebbd d098 a83e

decoder.0.weight f4 [12, 2]
0.73613197 0.37619078 -0.7391663 0.14545323 0.95157266 0.7251815 -0.3233882 0.59973305
0.85864764 0.04194868 0.4618713 0.6066409 0.42429304 0.6914583 0.8605064 -0.19628032
-0.09081556 -0.683154 0.13763088 -0.17571235 0.3505982 0.8634901 -0.53394324 0.75840145
00000000: 2573 3c3f 149c c03e 013a 3dbf b1f1 143e
00000010: 449a 733f 7fa5 393f 2393 a5be 1b88 193f
00000020: 55d0 5b3f 61d2 2b3d 657a ec3e d14c 1b3f
00000030: f03c d93e 6903 313f 264a 5c3f b5fd 48be
00000040: 82fd b9bd 2ee3 2ebf 1cef 0c3e f0ed 33be
00000050: 9b81 b33e b00d 5d3f 81b0 08bf 9926 423f

decoder.0.bias f4 [12]
-0.42291826 -0.18473457 0.53385097 -0.15072691 -0.02387106 -0.43440565 -0.11127819 0.41168785
0.08635173 1.3309749 0.36665797 0.7630576
00000000: be88 d8be 0f2b 3dbe 75aa 083f 2858 1abe
00000010: 3e8d c3bc 6b6a debe d2e5 e3bd c0c8 d23e
00000020: 2dd9 b03d 635d aa3f 98ba bb3e be57 433f

decoder.2.weight f4 [64, 12]
-0.1392101 0.123766966 0.2510463 -1.033196 -0.025694039 -0.24141078 -0.1453105 0.17703618
0.11045089 0.48877314 -0.29723248 -0.30551037 -0.18712883 0.034525815 0.13534218 -0.07309024
0.027177947 -0.0342756 -0.094372585 -0.20237917 -0.022786885 0.0039949 0.123331845 0.0656563
-0.15109241 0.1367288 0.3192204 0.009353413 -0.10333706 -0.08330939 -0.08625374 -0.07700946
-0.08788831 0.22033763 -0.11309013 -0.0093172155 -0.62371767 -0.13179637 -0.10221569 0.09542637
-0.28529158 -0.26850247 0.022462137 -0.047054388 0.11324425 0.6217794 -0.04147338 0.1435239
1.1987108e-38 0.15616877 -1.0774943 0.11029238 -0.5709461 -0.49158487 -0.6460426 0.0614703
-0.18783392 0.54905117 -0.06690394 0.21642017 -0.39170426 -0.28773364 -0.05634607 0.28538546
-0.25561675 -0.30101222 0.031123111 0.1201003 -0.30956665 0.43607906 0.082325496 0.35905942
-0.27454302 0.20693219 0.4931223 0.032453906 -0.17855799 -0.085295536 -0.1413913 -0.12604603
-0.16209105 0.3943335 -0.16478956 -0.1914174 -0.7617813 0.1253773 0.2642245 0.21989433
-0.5104645 -0.23916821 -0.13856491 -0.7453874 -0.20689213 -0.20689803 -0.13491172 0.36739734
-0.011676791 -0.296279 0.24632044 -0.011895554 0.041674882 0.30437225 0.34050077 0.050603442
0.034716457 0.19835036 0.2033474 -0.16417883 -0.26024252 -0.34795567 0.061788935 -0.19306102
-0.107670695 -0.21738295 -0.037552286 0.12575646 0.03918203 0.86135215 0.05294855 -0.059279732
-0.6066377 -0.012512014 -0.4808893 0.0023306992 -0.82661945 -0.81268096 -0.4324928 -0.39770213
0.010968948 0.954848 0.07594028 0.04480981 0.14403608 0.18749495 0.012924462 -0.017109167
0.039430957 0.1612176 0.059265185 -0.28709513 0.09543924 0.01839103 -0.057759926 -0.1308767
0.19191056 -0.117624916 0.38350993 0.09675946 -0.14314164 0.23596981 0.079051554 -0.08326634
0.2695163 0.17114581 0.1316395 -0.18162072 -0.25892726 -0.40033332 0.28198117 -0.458383
-0.2810511 -0.21136124 -0.05279074 0.07440765 0.42265514 0.74859804 -0.03903044 -0.33053997
-0.014492827 0.114208944 0.084059976 0.34130418 -0.14467122 0.06312629 0.212461 -0.26525044
-0.1428672 -0.07743334 0.09235208 0.29227704 1.5413409e-38 -7.2074734e-05 -6.8052434e-38 -9.805094e-11
-1.9116512e-38 -6.5432623e-38 -2.6851308e-34 6.425085e-39 -2.0077282e-07 -4.2783814e-38 -3.659229e-15 -2.3004395e-05
-5.033554e-38 0.19170274 -1.1626161 -0.02894514 -1.026496e-38 -0.5460303 -0.4721679 -0.017829128
-0.23664455 -0.15942004 -0.01679414 0.44645658 -0.3172018 -0.052216727 -0.25275445 -0.021224769
0.029945565 -0.17501068 0.0852898 0.19042918 0.031719822 -0.014343569 0.2780487 0.19260822
0.0041764807 -0.018379033 0.08958957 -0.16884178 -0.03202813 0.05296607 0.029523917 -0.35617897
0.1459212 -0.48539683 0.20560326 0.20936812 0.026373517 -0.557755 0.32385206 0.10418621
-0.6417658 0.12309857 0.07831831 -0.61015016 -0.392344 -0.09507962 0.05950466 0.23649722
0.5252133 0.24860708 0.13649035 0.28285748 0.202552 0.3668689 0.017870888 0.14149857
-0.25812656 0.061782166 -0.25336164 0.11072615 -0.005556819 -0.009337723 -0.020025672 -0.010098733
00000000: 188d 0ebe 8979 fd3d 2489 803e c43f 84bf
00000010: 4e7c d2bc 6334 77be 47cc 14be f948 353e
00000020: 1434 e23d 7940 fa3e db2e 98be db6b 9cbe
00000030: b39e 3fbe f16a 0d3d 2497 0a3e 56b0 95bd
00000040: 49a4 de3c 9264 0cbd 6a46 c1bd 7c3c 4fbe
00000050: 90ab babc a6e7 823b 6895 fc3d cf76 863d
00000060: f8b7 1abe a202 0c3e db70 a33e 0f3f 193c
00000070: 61a2 d3bd 1d9e aabd cda5 b0bd 23b7 9dbd
00000080: c9fe b3bd 30a0 613e cc9b e7bd 3ca7 18bc
00000090: f6ab 1fbf a1f5 06be 7656 d1bd e76e c33d
000000a0: bd11 92be 2879 89be 8402 b83c 1abc 40bd
000000b0: 9aec e73d ef2c 1f3f fedf 29bd eef7 123e
000000c0: 2e87 8200 b5ea 1f3e 55eb 89bf f9e0 e13d
000000d0: 8629 12bf 03b1 fbbe 0c63 25bf 48c8 7b3d
000000e0: 8957 40be 9e8e 0c3f ef04 89bd 409d 5d3e
000000f0: 768d c8be d351 93be 23cb 66bd 0b1e 923e
00000100: 33e0 82be 461e 9abe e5f5 fe3c 25f7 f53d
00000110: 857f 9ebe c145 df3e 459a a83d a3d6 b73e
00000120: e790 8cbe 08e6 533e 877a fc3e 63ee 043d
00000130: e8d7 36be 6daf aebd e2c8 10be 3612 01be
00000140: 32fb 25be 15e6 c93e 98be 28be ec02 44be
00000150: 1904 43bf e862 003e 6f48 873e fb2b 613e
00000160: cdad 02bf 83e8 74be f6e3 0dbe b5d1 3ebf
00000170: 88db 53be 14dd 53be 4c26 0abe 811b bc3e
00000180: 0350 3fbc e2b1 97be 6d3b 7c3e 92e5 42bc
00000190: 48b3 2a3d aed6 9b3e 1e56 ae3e 8e45 4f3d
000001a0: d832 0e3d 5b1c 4b3e 4d3a 503e 7f1e 28be
000001b0: 823e 85be 3f27 b2be 6516 7d3d cab1 45be
000001c0: 7482 dcbd a399 5ebe 6dd0 19bd 4dc6 003e
000001d0: 567d 203d 9381 5c3f 94e0 583d 4ecf 72bd
000001e0: 9c4c 1bbf 31ff 4cbc 1f37 f6be a5be 183b
000001f0: 559d 53bf dc0b 50bf b26f ddbe 9d9f cbbe
00000200: 1ab7 333c eb70 743f 9486 9b3d 7e8a 373d
00000210: 327e 133e adfe 3f3e 1fc1 533c 8628 8cbc
00000220: 5b82 213d 3a16 253e 0dc0 723d 22fe 92be
00000230: a675 c33d c9a8 963c ac95 6cbd 8b04 06be
00000240: 3484 443e 55e5 f0bd 6a5b c43e d329 c63d
00000250: b993 12be 12a2 713e c8e5 a13d 8b87 aabd
00000260: 0afe 893e d940 2f3e 81cc 063e c8fa 39be
00000270: 1d92 84be 7df8 ccbe d65f 903e 2db1 eabe
00000280: eee5 8fbe 156f 58be 1a3b 58bd 0a63 983d
00000290: 4166 d83e 1fa4 3f3f 62de 1fbd 893c a9be
000002a0: 5273 6dbc 61e6 e93d a327 ac3d 6cbf ae3e
000002b0: b124 14be 5b48 813d 608f 593e e8ce 87be
000002c0: c74b 12be 5f95 9ebd 1623 bd3d 56a5 953e
000002d0: 50d6 a700 d426 97b8 a041 b981 c69d d7ae
000002e0: 0f29 d080 e21f b281 2275 b287 86f6 4500
000002f0: 0394 57b4 efef 6881 6ed6 83a7 90f9 c0b7
00000300: c006 8981 b94d 443e 9bd0 94bf 5c1e edbc
00000310: 88c6 6f80 a4c8 0bbf febf f1be 640e 92bc
00000320: f352 72be 023f 23be dd93 89bc f595 e43e
00000330: 4668 a2be 35e1 55bd 0869 81be 91df adbc
00000340: 6750 f53c 0036 33be 6bac ae3d deff 423e
00000350: a5ec 013d 4a01 6bbc 665c 8e3e 173b 453e
00000360: dcda 883b a08f 96bc bd7a b73d dce4 2cbe
00000370: ee2f 03bd f3f2 583d 24dc f13c 175d b6be
00000380: 5e6c 153e ef85 f8be a989 523e 9964 563e
00000390: 460d d83c 08c9 0ebf f0cf a53e 945f d53d
000003a0: c34a 24bf 1a1b fc3d 5a65 a03d cd32 1cbf
000003b0: 50e1 c8be 1bb9 c2bd 29bb 733d 542c 723e
000003c0: 6174 063f db92 7e3e 20c4 0b3e b2d2 903e
000003d0: cb69 4f3e 3ed6 bb3e f865 923c 00e5 103e
000003e0: 2a29 84be 4c0f 7d3d 9eb8 81be 64c4 e23d
000003f0: fa15 b6bb 40fd 18bc e10c a4bc 2875 25bc

decoder.2.bias f4 [64]
0.76269615 0.37251833 -0.07103173 0.7146622 0.14224765 0.41894853 0.63957727 0.25606418
0.008427274 0.56615937 0.60393715 0.51408225 -0.13282765 0.8024938 -0.47280276 -4.5184208e-23
0.064608775 0.44480017 0.32207426 0.29606012 -0.61547416 -0.013976928 -0.015173225 0.2653575
0.51271826 -0.0003686873 -0.6955241 -0.30859157 0.02821439 0.27719045 -0.25924054 0.4700236
-3.7367232e-32 0.5004279 0.8706312 0.26785025 0.2562569 -0.6928635 -0.43265864 -0.2362792
-2.7130913e-05 0.017146045 0.46152487 -3.1675993e-38 -0.32309368 -0.06649699 0.3289183 -6.510945e-21
0.63863003 0.36783072 0.16747949 0.7771182 -7.871768e-06 -0.77060455 -0.44953087 0.39133146
0.83406395 0.4015771 0.43728295 -0.25952455 0.25055885 0.46882188 0.14733528 0.094481654
00000000: 0e40 433f b9ba be3e 1579 91bd 1af4 363f
00000010: 5ea9 113e 6c80 d63e 56bb 233f d81a 833e
00000020: 8d12 0a3c d2ef 103f a09b 1a3f e59a 033f
00000030: f903 08be 3c70 4d3f 3413 f2be 577f 5a9a
00000040: 9b51 843d d9bc e33e ebe6 a43e 3195 973e
00000050: b78f 1dbf 7cff 64bc 1e99 78bc f0dc 873e
00000060: 8141 033f 5f4c c1b9 de0d 32bf b7ff 9dbe
00000070: dd21 e73c e8eb 8d3e 2dbb 84be efa6 f03e
00000080: 9205 428b 0b1c 003f b0e1 5e3f ab23 893e
00000090: 1b34 833e 815f 31bf 6f85 ddbe 2df3 71be
000000a0: 3197 e3b7 dd75 8c3c fd4c ec3e e475 2c81
000000b0: 896c a5be 932f 88bd fb67 a83e fff9 f59d
000000c0: 427d 233f 4f54 bc3e be7f 2b3e 38f1 463f
000000d0: fc10 04b7 5746 45bf e928 e6be 995c c83e
000000e0: 3785 553f 839b cd3e 8de3 df3e 67e0 84be
000000f0: 4049 803e 6c09 f03e 0fdf 163e 997f c13d

decoder.4.weight f4 [128, 64]
-0.09086367 0.024696462 0.06413946 0.031658173 -0.0068887607 0.11133534 0.27440715 0.10971006
-0.02977831 -0.11841268 -0.077281035 0.22170244 0.010664886 -0.07802578 -0.0862642 -5.9753754e-38
-0.10140417 -0.040926695 -0.069885224 -0.047683824 -0.13464876 0.0033850935 -0.0008118436 -0.025476668
-0.058919493 -1.1582708e-06 0.042790554 -0.09608654 0.060817212 -0.17354901 0.07003029 0.025827795
9.029328e-39 0.12733378 0.13142769 -0.05076448 0.15476248 -0.23392859 -0.18923259 0.12072287
2.8600256e-12 0.11358709 0.14778847 5.9624185e-38 -0.28834623 -0.00097426906 -0.19567035 -5.0073276e-38
0.19583203 -0.20770262 -0.0069142743 0.10229822 -1.3037256e-17 0.10270416 0.12575231 0.28194252
0.04792573 -0.1359442 0.034698214 0.054139033 -0.18033099 0.006682019 -0.0032360433 -0.0909116
-0.0017348693 0.054619875 -0.0174836 -0.07690899 0.09365877 0.04398714 0.006959995 -0.036008928
0.07641618 0.036485285 0.08495266 0.012670715 -0.06971203 -0.15082061 -0.14387445 4.851375e-38
0.20235302 0.13770618 0.010857446 -0.047678564 -0.13347395 -0.00016880273 -0.038003877 0.06866233
0.02466027 -7.827706e-09 -0.022166794 -0.029076882 0.039952688 -0.17912975 0.04851267 0.069516815
1.9746182e-38 -0.10992038 0.11210815 0.1145768 0.019897252 -0.014916812 -0.07871237 -0.026652763
-5.28854e-11 0.055829648 0.079754956 -4.805491e-39 -0.02928542 -0.024946418 -0.10207004 -2.300496e-38
-0.027017841 0.0147254495 -0.08097314 0.046449386 3.889071e-39 -0.14284758 0.08234386 0.17364182
0.20226423 0.07827035 0.12287596 0.033767372 0.085919745 0.036058832 -0.057218183 -0.071954064
-0.016596014 -0.09316084 0.100880496 -0.09984828 -0.13515821 -0.0232844 0.2036629 0.21614309
-0.016372731 0.085286096 -0.099700965 0.038024977 -0.07034509 -0.025497718 -0.084688716 5.2972266e-38
-0.118484125 0.016866857 0.030410966 -0.027122712 -0.18003428 -0.0007080906 -0.024863921 0.22932526
-0.05346062 -5.17927e-15 -0.19404922 0.022468798 -0.07630739 -0.0140374005 -0.046219725 -0.07232332
3.0137978e-38 0.06805515 0.15996747 -0.054602068 -0.02910609 0.14572383 0.0037425808 -0.18512796
-5.214535e-16 -0.050590504 -0.02104743 -7.043184e-39 0.04503676 -0.14595403 0.29184282 -3.185499e-38
0.12929562 0.03918438 -0.02200747 0.1265389 -2.3323165e-34 -0.2847821 -0.040143266 -0.17564249
0.056421287 0.4018012 -0.099872194 -0.09369117 0.17873938 0.104325265 -0.012947702 -0.07904442
0.31925872 0.17407078 -0.028278895 0.22292489 -0.31349948 0.24579753 0.051662553 0.04261664
-0.47974324 0.17639308 -0.069719024 0.16257554 -0.345195 0.13342385 0.0058832113 -6.3215673e-16
-0.1522899 0.2236937 0.02360945 0.104114495 -0.3292726 -0.00086722616 0.118149504 0.21707268
0.10414287 -1.004165e-06 -0.29925933 0.009030194 0.038465958 -0.023624364 -0.4856004 0.16705358
-3.2539864e-22 0.15766485 0.21295382 0.08046606 -0.09533766 -0.5899191 -0.12744127 -0.17854096
2.729169e-06 -0.107665956 0.24394068 3.9313025e-38 0.18624538 -0.5574534 0.3363339 -4.756196e-39
0.04807728 0.29244456 0.032513525 0.15990697 4.163188e-17 -0.47461098 -0.73231965 0.08092985
-0.06373581 -0.27466306 0.31686962 -0.6008127 -0.44172803 0.01961325 0.05968155 0.15025717
00000000: bb16 babd 3c50 ca3c 8d5b 833d 00ac 013d
00000010: 1dbb e1bb c803 e43d 187f 8c3e abaf e03d
00000020: a4f1 f3bc 5982 f2bd 8545 9ebd f705 633e
00000030: c6bb 2e3c fbcb 9fbd 49ab b0bd 4aaa a281
00000040: fdac cfbd c0a2 27bd fc1f 8fbd 1d50 43bd
00000050: 5de1 09be 72d8 5d3b e7d1 54ba 72b4 d0bc
00000060: 9155 71bd e275 9bb5 2645 2f3d 05c9 c4bd
00000070: 781b 793d d5b6 31be 0a6c 8f3d d094 d33c
00000080: 1852 6200 c963 023e fb94 063e 6aee 4fbd
00000090: 0e7a 1e3e fa8a 6fbe 30c6 41be 8d3d f73d
000000a0: a441 492c 59a0 e83d dc55 173e fe4f a201
000000b0: 1ea2 93be 1766 7fba cf5d 48be fb4f 8881
000000c0: 3188 483e ffaf 54be 2391 e2bb bb81 d13d
000000d0: b37e 70a3 8f56 d23d 37c5 003e c55a 903e
000000e0: c54d 443d f534 0bbe b71f 0e3d e4c0 5d3d
000000f0: b0a8 38be d7f4 da3b cc13 54bb dc2f babd
00000100: 8e64 e3ba 17b9 5f3d c439 8fbc 7682 9dbd
00000110: 2bd0 bf3d dc2b 343d ab10 e43b 197e 13bd
00000120: 1680 9c3d 9871 153d a9fb ad3d d598 4f3c
00000130: 2ec5 8ebd b870 1abe d353 13be 2611 8401
00000140: a135 4f3e d902 0d3e 6ee3 313c 994a 43bd
00000150: 65ad 08be a300 31b9 f4a9 1bbd d69e 8c3d
00000160: 5604 ca3c 9d7a 06b2 2397 b5bc a432 eebc
00000170: 6ea5 233d ca6d 37be 39b5 463d d55e 8e3d
00000180: 5204 d700 f01d e1bd f598 e53d 3ea7 ea3d
00000190: 90ff a23c a565 74bc f333 a1bd e556 dabc
000001a0: ab97 68ae a1ad 643d 9156 a33d c153 3480
000001b0: fae7 efbc 6e5c ccbc 190a d1bd 7880 fa80
000001c0: 8554 ddbc 0343 713c 3fd5 a5bd b641 3e3d
000001d0: 2659 2a00 a346 12be e6a3 a83d 29cf 313e
000001e0: 5b1e 4f3e 354c a03d 64a6 fb3d a84f 0a3d
000001f0: b1f6 af3d 6db2 133d 9d5d 6abd a75c 93bd
00000200: 5df4 87bc 1ccb bebd 6f9a ce3d 417d ccbd
00000210: ea66 0abe edbe bebc 028d 503e 9d54 5d3e
00000220: 1b20 86bc 7aaa ae3d 0530 ccbd 14c0 1b3d
00000230: 1611 90bd 97e0 d0bc 4771 adbd 4834 9001
00000240: cea7 f2bd 5d2c 8a3c 6b20 f93c 7330 debc
00000250: e85a 38be 289f 39ba 6caf cbbc 3ed4 6a3e
00000260: 86f9 5abd 569a baa7 d7b4 46be 7c10 b83c
00000270: 0d47 9cbd 20fd 65bc e550 3dbd 401e 94bd
00000280: 3616 2401 8060 8b3d 83ce 233e 6ba6 5fbd
00000290: e56f eebc a138 153e 1646 753b 2f92 3dbe
000002a0: 7a4c 16a6 fd37 4fbd a96b acbc 88b1 4c80
000002b0: 7778 383d f974 15be 6c6c 953e 606f 2d81
000002c0: 1266 043e cd7f 203d 0249 b4bc 6a93 013e
000002d0: 4f02 9b87 f6ce 91be 446d 24bd a0db 33be
000002e0: 021a 673d e3b8 cd3e cb89 ccbd 28e1 bfbd
000002f0: 7507 373e 7ca8 d53d 9922 54bc 0ae2 a1bd
00000300: e175 a33e 9c3f 323e 24a9 e7bc 6c46 643e
00000310: 0183 a0be 59b2 7b3e 1d9c 533d c98e 2e3d
00000320: e8a0 f5be 63a0 343e d9c8 8ebd 347a 263e
00000330: 66bd b0be 43a0 083e f4c7 c03b ef34 36a6
00000340: e2f1 1bbe f60f 653e 9b68 c13c fb39 d53d
00000350: 6b96 a8be 9056 63ba 5ef8 f13d 4d48 5e3e
00000360: db48 d53d d9c6 86b5 8538 99be 61f3 133c
00000370: 7b8e 1d3d e287 c1bc 9ea0 f8be 1810 2b3e
00000380: 00b1 c49b e572 213e 9110 5a3e 64cb a43d
00000390: 6440 c3bd f004 17bf f77f 02be 71d3 36be
000003a0: c426 3736 f87f dcbd 96cb 793e 5c0a 5601
000003b0: 1cb7 3e3e 44b5 0ebf f533 ac3e 57ca 3380
000003c0: afec 443d 4bbb 953e e72c 053d a7be 233e
000003d0: 40fe 3f24 3600 f3be 4d79 3bbf 8dbe a53d
000003e0: ec87 82bd a3a0 8cbe bc3c a23e dcce 19bf
000003f0: 2d2a e2be f7ab a03c a474 743d 04dd 193e

decoder.4.bias f4 [128]
0.26161724 0.118258744 0.03512539 0.28107315 0.19346763 0.27945602 0.14691566 1.9527209e-38
0.13297078 -0.07269858 0.398355 -0.051011384 -0.0023426868 -0.003221482 0.15197642 -0.118253484
0.059589352 0.10373323 0.36502758 -0.10997631 -0.027770748 0.15956971 0.22627679 0.23276734
0.12078038 0.12922886 0.12189848 -0.007498731 -0.039507817 -2.2808884e-30 0.37424964 -0.0010317407
-1.2985355e-05 -0.09334874 0.14233764 -0.00010727949 -1.6076377e-09 0.3736867 0.12967671 0.114342645
-5.0383965e-06 -0.0006108836 0.049607165 0.0428514 -0.00034323463 0.13914813 0.17542712 -0.0012614488
-1.0471343e-06 0.1465983 -0.00017660199 0.109849095 0.07699668 0.12381935 0.28668067 -0.0012560498
0.21827303 -0.0025395642 0.23899454 0.018114299 -0.08105723 -0.003152371 -4.6533285e-07 0.40823483
0.060189422 -0.017930422 0.03542968 0.22008444 -0.2444035 0.2195802 -0.011670596 -0.0653888
-0.0027750612 -0.17200176 0.16392016 0.06473341 -2.7231232e-08 0.20224324 0.24830852 0.37989107
0.08099035 0.016082611 -0.32218108 0.08944115 0.025388714 -0.0607917 0.20911232 -0.0027123736
-0.00044755274 0.14565545 -6.698819e-31 -0.2745631 0.17219144 -0.17135583 -2.366074e-09 0.29268807
-0.00043879944 0.05661933 -0.034304388 -0.1184753 -0.21479121 0.4516335 -0.035314407 -0.0015975182
0.19323966 0.32446083 0.13068424 -5.0110016e-06 0.08148605 0.17395769 0.1872564 0.13137648
-0.07318927 0.20192397 0.13450854 0.098775506 0.10788657 0.15556434 0.10938894 -3.097209e-05
0.41314992 -4.6376817e-06 0.22689012 0.28396967 0.031973317 0.06863396 0.06756528 0.046322536
00000000: b2f2 853e a431 f23d a4df 0f3d d2e8 8f3e
00000010: 611c 463e dc14 8f3e 0f71 163e eaa1 d400
00000020: 7e29 083e fee2 94bd 30f5 cb3e 50f1 50bd
00000030: c387 19bb 801f 53bb b59f 1b3e e22e f2bd
00000040: f713 743d 1672 d43d e5e4 ba3e 423b e1bd
00000050: 7b7f e3bc 3e66 233e 1ab5 673e 905a 6e3e
00000060: b45b f73d 9254 043e e9a5 f93d eab7 f5bb
00000070: f3d2 21bd 330c 398e a69d bf3e 793b 87ba
00000080: addb 59b7 a02d bfbd f5c0 113e 3dfb e0b8
00000090: b9f3 dcb0 dd53 bf3e f9c9 043e 7a2c ea3d
000000a0: 7f0f a9b6 b423 20ba e230 4b3d f384 2f3d
000000b0: 2cf4 b3b9 d97c 0e3e 2ba3 333e 3357 a5ba
000000c0: 438b 8cb5 dd1d 163e 3c2e 39b9 90f8 e03d
000000d0: 6fb0 9d3d 0095 fd3d cfc7 923e 0aa2 a4ba
000000e0: f782 5f3e d16e 26bb fcba 743e 7064 943c
000000f0: 5501 a6bd 0298 4ebb dcd2 f9b4 2804 d13e
00000100: 2f89 763d d2e2 92bc b61e 113d d15d 613e
00000110: e944 7abe a2d9 603e 0736 3fbc 90ea 85bd
00000120: cddd 35bb 3b21 30be b0da 273e f392 843d
00000130: 1dea e9b2 da18 4f3e 9744 7e3e 1581 c23e
00000140: 45de a53d aebf 833c ebf4 a4be ec2c b73d
00000150: fefb cf3c b800 79bd 8a21 563e 14c2 31bb
00000160: 83a5 eab9 b426 153e 9c63 598d 8993 8cbe
00000170: f452 303e e777 2fbe 6a98 22b1 36db 953e
00000180: aa0e e6b9 ace9 673d c282 0cbd 2ea3 f2bd
00000190: 3af2 5bbe 823c e73e d7a5 10bd d163 d1ba
000001a0: 9ee0 453e bb1f a63e 17d2 053e 2d24 a8b6
000001b0: 28e2 a63d f721 323e 24c0 3f3e 8e87 063e
000001c0: 42e4 95bd 28c5 4e3e 9bbc 093e d04a ca3d
000001d0: a2f3 dc3d 424c 1f3e 4f07 e03d 07e8 01b8
000001e0: 6388 d33e 629d 9bb6 e255 683e 7964 913e
000001f0: 74f6 023d f68f 8c3d aa5f 8a3d b3bc 3d3d

decoder.6.weight f4 [784, 128]
-0.015196744 -0.020713894 -0.009255614 -0.023429945 -0.01829742 -0.046282813 -0.040102128 -4.629527e-38
-0.007236245 -0.0044106147 -0.043547653 -0.046123605 5.922007e-38 4.5463873e-38 -0.050816868 -0.030916326
-0.022022951 -0.016131714 -0.051467936 -0.011090367 2.751894e-16 -0.048071 -0.006096551 -0.014343054
-0.022886809 -0.01222553 -0.005187217 3.5434315e-38 -0.043730624 -5.039982e-38 -0.05849477 2.7976313e-38
-9.12587e-40 -0.008686745 -0.042476676 -1.0164397e-38 3.2972676e-38 -0.045607965 -0.0099189095 -0.050451245
1.4120784e-38 -3.165851e-38 -0.072628945 -0.012175046 -2.0683087e-38 -0.024737805 -0.030632127 -4.03315e-39
6.845014e-38 -0.017980047 -4.5608812e-38 -0.021844575 -0.033365376 -0.049499087 -0.037111804 -0.027462313
-0.021225274 5.25257e-40 -0.0186751 -0.00836823 -0.043208554 4.56852e-38 -4.5833042e-38 -0.07633693
-0.007816241 -0.01880582 -0.06508188 -0.0135627175 -0.010787409 -0.028845228 -6.4013285e-32 -0.023695238
-3.7792072e-38 -0.024824878 -0.025649229 -0.008940638 -3.1807384e-38 -0.020663528 -0.034047633 -0.024053093
-0.0053310758 -0.05285503 -0.031685814 -0.00924592 -0.0154249165 -0.011801971 -0.020866629 4.0248251e-38
-1.5455868e-38 -0.011667484 -4.43338e-38 -0.019153574 -0.010550602 -0.019924818 1.5471882e-38 -0.026475681
-2.0450393e-38 -0.007947108 -0.0036032978 -0.036223948 -0.0069233663 -0.05774114 -0.006011239 2.7493274e-38
-0.035890684 -0.031875905 -0.021984523 -5.2839355e-38 -0.020412978 -0.007902663 -0.030323803 -0.032885198
-0.061571967 -0.016691893 -0.0063888244 -0.005990291 -0.018537382 -0.041600514 -0.009764035 1.5059306e-38
-0.037843008 7.0073976e-38 -0.02573612 -0.018746072 -0.0161453 -0.03350203 -0.042897724 -0.021806426
-0.015196956 -0.020713853 -0.009254668 -0.023429934 -0.018297462 -0.04628284 -0.04010215 -2.101923e-38
-0.007236222 -0.0044110348 -0.043547682 -0.046123654 5.86641e-38 -2.5268954e-38 -0.050816778 -0.030916372
-0.022022966 -0.016131816 -0.05146799 -0.011090424 2.7531207e-16 -0.048071034 -0.0060972525 -0.014343103
-0.022887295 -0.012225773 -0.0051875813 2.8341514e-38 -0.043730617 -3.6235992e-38 -0.058494855 6.919657e-39
-4.4321417e-38 -0.008686787 -0.042476702 1.6385024e-38 -1.835738e-38 -0.045607932 -0.009918901 -0.05045127
-1.166076e-38 1.5952656e-38 -0.07262898 -0.012175099 -2.4966514e-38 -0.024737885 -0.030632207 -1.1959258e-38
6.980694e-38 -0.017980218 2.0644966e-38 -0.021844482 -0.033365384 -0.0494991 -0.037111737 -0.027462322
-0.021224886 -3.1232196e-38 -0.018675104 -0.008368042 -0.04320855 2.9897353e-38 3.1507266e-38 -0.07633697
-0.007816331 -0.018805617 -0.06508193 -0.013562779 -0.010786959 -0.028845206 -6.412753e-32 -0.023695225
-2.6264548e-38 -0.02482484 -0.025649333 -0.008940541 7.756047e-39 -0.02066332 -0.03404769 -0.024053127
-0.0053286594 -0.052855056 -0.03168577 -0.009244939 -0.015424944 -0.011801533 -0.020866519 -2.879276e-39
-2.9451202e-38 -0.011666572 -8.9605e-41 -0.019153565 -0.010550641 -0.01992473 4.321083e-39 -0.026475796
-3.0073485e-38 -0.007947382 -0.003604996 -0.03622392 -0.006923399 -0.057741202 -0.006011542 -2.2968504e-38
-0.035891186 -0.031875923 -0.021984475 -5.658838e-38 -0.020412987 -0.007902709 -0.030323911 -0.03288522
-0.061571963 -0.016691932 -0.0063893073 -0.005990768 -0.018537397 -0.04160056 -0.009763583 2.0437568e-38
-0.037843116 4.766865e-38 -0.025736198 -0.018746022 -0.016144272 -0.03350201 -0.042897698 -0.021806436
00000000: c4fb 78bc 2fb0 a9bc dca4 17bc 28f0 bfbc
00000010: 79e4 95bc 0c93 3dbd 2142 24bd 300e 7c81
00000020: 061e edbb eb86 90bb 065f 32bd 1bec 3cbd
00000030: 5e36 a101 6487 7701 5925 50bd 3c44 fdbc
00000040: 7a69 b4bc a826 84bc 0bd0 52bd 5fb4 35bc
00000050: caa2 9e25 19e6 44bd 94c5 c7bb 21ff 6abc
00000060: 1e7d bbbc 974d 48bc 88f9 a9bb 3aec 4001
00000070: e21e 33bd 8c33 8981 3698 6fbd 4a51 1801
00000080: ecef 0980 d952 0ebc 06fc 2dbd 34ae 6e80
00000090: 3485 3301 6bcf 3abd ec82 22bc f7a5 4ebd
000000a0: 00c3 9900 865d 2c81 7cbe 94bd d879 47bc
000000b0: 0838 e180 f0a6 cabc 3af0 fabc c8ea 2b80
000000c0: c956 ba01 e44a 93bc 6851 7881 65f3 b2bc
000000d0: 22aa 08bd 8ebf 4abd 8c02 18bd a5f8 e0bc
000000e0: a0e0 adbc 34b8 0500 86fc 98bc e71a 09bc
000000f0: 74fb 30bd e0bb 7801 f089 7981 8956 9cbd
00000100: b10f 00bc aa0e 9abc a649 85bd 2936 5ebc
00000110: acbd 30bc d44c ecbc 2030 a68b 841c c2bc
00000120: 76c2 4d81 8b5d cbbc 551e d2bc c17b 12bc
00000130: 062d 2d81 8f46 a9bc 8875 0bbd fe0a c5bc
00000140: 4eb0 aebb 847e 58bd fcc8 01bd 337c 17bc
00000150: cab8 7cbc 0e5d 41bc 7ef0 aabc e021 5b01
00000160: ac4c a880 fa28 3fbc 4c60 7181 f5e7 9cbc
00000170: 6fdc 2cbc 5f39 a3bc 5079 a800 87e3 d8bc
00000180: 60af de80 9634 02bc 4e25 6cbb 905f 14bd
00000190: 68dd e2bb f981 6cbd edf9 c4bb 08b0 1501
000001a0: 1c02 13bd 4f90 02bd e318 b4bc a8d7 8f81
000001b0: 1e39 a7bc 2c7a 01bc a069 f8bc a1b2 06bd
000001c0: e332 7cbd 70bd 88bc 5859 d1bb 344a c4bb
000001d0: b5db 97bc 4d65 2abd 55f9 1fbc 38fb a300
000001e0: 4501 1bbd 6fc2 be01 8ed4 d2bc 5d91 99bc
000001f0: 2643 84bc 6d39 09bd 86b5 2fbd 64a3 b2bc
00000200: a7fc 78bc 19b0 a9bc e4a0 17bc 22f0 bfbc
00000210: 8fe4 95bc 1393 3dbd 2742 24bd 10e1 e480
00000220: d41d edbb 718a 90bb 0e5f 32bd 28ec 3cbd
00000230: e9b2 9f01 c893 0981 4125 50bd 5544 fdbc
00000240: 8269 b4bc df26 84bc 19d0 52bd 9cb4 35bc
00000250: e4b4 9e25 22e6 44bd 76cb c7bb 56ff 6abc
00000260: 237e bbbc 9c4e 48bc 96fc a9bb 4e4e 1a01
00000270: e01e 33bd 9a49 4581 4d98 6fbd 3059 4b00
00000280: 0a4f 7181 0753 0ebc 0dfc 2dbd c86a b200
00000290: e8e4 c780 62cf 3abd e382 22bc fea5 4ebd
000002a0: 74f9 7e80 84b5 ad00 81be 94bd 117a 47bc
000002b0: 3eee 0781 1ba7 cabc 65f0 fabc 8c39 8280
000002c0: 5608 be01 404b 93bc c4cd e000 33f3 b2bc
000002d0: 24aa 08bd 91bf 4abd 7a02 18bd aaf8 e0bc
000002e0: d0df adbc 540b 2a81 88fc 98bc 1d1a 09bc
000002f0: 73fb 30bd d4c6 2201 b88a 2b01 8f56 9cbd
00000300: 1210 00bc 3d0e 9abc ad49 85bd 6b36 5ebc
00000310: c9bb 30bc c84c ecbc 0e7c a68b 7d1c c2bc
00000320: 70ff 0e81 765d cbbc 8d1e d2bc 597b 12bc
00000330: b474 5400 1f46 a9bc 9775 0bbd 100b c5bc
00000340: 099c aebb 8b7e 58bd f0c8 01bd 1678 17bc
00000350: e8b8 7cbc 385b 41bc 43f0 aabc 405a 1f80
00000360: fc58 2081 2625 3fbc c8f9 0080 f0e7 9cbc
00000370: 99dc 2cbc 3039 a3bc 6c0d 2f00 c5e3 d8bc
00000380: 52bc 2381 bc35 02bc cc41 6cbb 885f 14bd
00000390: aedd e2bb 0a82 6cbd 78fc c4bb d81a fa80
000003a0: a302 13bd 5490 02bd c918 b4bc 580c 9a81
000003b0: 2339 a7bc 5d7a 01bc da69 f8bc a7b2 06bd
000003c0: e232 7cbd 85bd 88bc 655d d1bb 344e c4bb
000003d0: bddb 97bc 5965 2abd 6ff7 1fbc a08b de00
000003e0: 6201 1bbd 33c4 8101 b8d4 d2bc 4291 99bc
000003f0: fe40 84bc 6739 09bd 7fb5 2fbd 69a3 b2bc
